…
d":"11654926023058087793"}},"outputId":"5f853cb3-a1b9-4b3e-f671-9df529132d6f"},"execution_count":17,"outputs":[{"output_type":"execute_result","data":{"text/plain":["======================================================================================================================\n","Layer (type (var_name))                            Input Shape       Output Shape      Param #           Trainable\n","======================================================================================================================\n","Unet (Unet)                                        [1, 3, 512, 512]  [1, 5, 512, 512]  --                True\n","├─ResNetEncoder (encoder)                          [1, 3, 512, 512]  [1, 3, 512, 512]  --                True\n","│    └─Conv2d (conv1)                              [1, 3, 512, 512]  [1, 64, 256, 256] 9,408             True\n","│    └─BatchNorm2d (bn1)                           [1, 64, 256, 256] [1, 64, 256, 256] 128               True\n","│    └─ReLU (relu)                                 [1, 64, 256, 256] [1, 64, 256, 256] --                --\n","│    └─MaxPool2d (maxpool)                         [1, 64, 256, 256] [1, 64, 128, 128] --                --\n","│    └─Sequential (layer1)                         [1, 64, 128, 128] [1, 64, 128, 128] --                True\n","│    │    └─BasicBlock (0)                         [1, 64, 128, 128] [1, 64, 128, 128] 73,984            True\n","│    │    └─BasicBlock (1)                         [1, 64, 128, 128] [1, 64, 128, 128] 73,984            True\n","│    │    └─BasicBlock (2)                         [1, 64, 128, 128] [1, 64, 128, 128] 73,984            True\n","│    └─Sequential (layer2)                         [1, 64, 128, 128] [1, 128, 64, 64]  --                True\n","│    │    └─BasicBlock (0)                         [1, 64, 128, 128] [1, 128, 64, 64]  230,144           True\n","│    │    └─BasicBlock (1)                         [1, 128, 64, 64]  [1, 128, 64, 64]  295,424           True\n","│    │    └─BasicBlock (2)                         [1, 128, 64, 64]  [1, 128, 64, 64]  295,424           True\n","│    │    └─BasicBlock (3)                         [1, 128, 64, 64]  [1, 128, 64, 64]  295,424           True\n","│    └─Sequential (layer3)                         [1, 128, 64, 64]  [1, 256, 32, 32]  --                True\n","│    │    └─BasicBlock (0)                         [1, 128, 64, 64]  [1, 256, 32, 32]  919,040           True\n","│    │    └─BasicBlock (1)                         [1, 256, 32, 32]  [1, 256, 32, 32]  1,180,672         True\n","│    │    └─BasicBlock (2)                         [1, 256, 32, 32]  [1, 256, 32, 32]  1,180,672         True\n","│    │    └─BasicBlock (3)                         [1, 256, 32, 32]  [1, 256, 32, 32]  1,180,672         True\n","│    │    └─BasicBlock (4)                         [1, 256, 32, 32]  [1, 256, 32, 32]  1,180,672         True\n","│    │    └─BasicBlock (5)                         [1, 256, 32, 32]  [1, 256, 32, 32]  1,180,672         True\n","│    └─Sequential (layer4)                         [1, 256, 32, 32]  [1, 512, 16, 16]  --                True\n","│    │    └─BasicBlock (0)                         [1, 256, 32, 32]  [1, 512, 16, 16]  3,673,088         True\n","│    │    └─BasicBlock (1)                         [1, 512, 16, 16]  [1, 512, 16, 16]  4,720,640         True\n","│    │    └─BasicBlock (2)                         [1, 512, 16, 16]  [1, 512, 16, 16]  4,720,640         True\n","├─UnetDecoder (decoder)                            [1, 3, 512, 512]  [1, 16, 512, 512] --                True\n","│    └─Identity (center)                           [1, 512, 16, 16]  [1, 512, 16, 16]  --                --\n","│    └─ModuleList (blocks)                         --                --                --                True\n","│    │    └─DecoderBlock (0)                       [1, 512, 16, 16]  [1, 256, 32, 32]  2,360,320         True\n","│    │    └─DecoderBlock (1)                       [1, 256, 32, 32]  [1, 128, 64, 64]  590,336           True\n","│    │    └─DecoderBlock (2)                       [1, 128, 64, 64]  [1, 64, 128, 128] 147,712           True\n","│    │    └─DecoderBlock (3)                       [1, 64, 128, 128] [1, 32, 256, 256] 46,208            True\n","│    │    └─DecoderBlock (4)                       [1, 32, 256, 256] [1, 16, 512, 512] 6,976             True\n","├─SegmentationHead (segmentation_head)             [1, 16, 512, 512] [1, 5, 512, 512]  --                True\n","│    └─Conv2d (0)                                  [1, 16, 512, 512] [1, 5, 512, 512]  725               True\n","│    └─Identity (1)                                [1, 5, 512, 512]  [1, 5, 512, 512]  --                --\n","│    └─Activation (2)                              [1, 5, 512, 512]  [1, 5, 512, 512]  --                --\n","│    │    └─Identity (activation)                  [1, 5, 512, 512]  [1, 5, 512, 512]  --                --\n","======================================================================================================================\n","Total params: 24,436,949\n","Trainable params: 24,436,949\n","Non-trainable params: 0\n","Total mult-adds (G): 31.41\n","======================================================================================================================\n","Input size
…
d":"11654926023058087793"}},"outputId":"66a8d43d-d37b-4356-c8f9-c0f12dd26294"},"execution_count":18,"outputs":[{"output_type":"execute_result","data":{"text/plain":["======================================================================================================================\n","Layer (type (var_name))                            Input Shape       Output Shape      Param #           Trainable\n","======================================================================================================================\n","Unet (Unet)                                        [1, 3, 512, 512]  [1, 5, 512, 512]  --                Partial\n","├─ResNetEncoder (encoder)                          [1, 3, 512, 512]  [1, 3, 512, 512]  --                False\n","│    └─Conv2d (conv1)                              [1, 3, 512, 512]  [1, 64, 256, 256] (9,408)           False\n","│    └─BatchNorm2d (bn1)                           [1, 64, 256, 256] [1, 64, 256, 256] (128)             False\n","│    └─ReLU (relu)                                 [1, 64, 256, 256] [1, 64, 256, 256] --                --\n","│    └─MaxPool2d (maxpool)                         [1, 64, 256, 256] [1, 64, 128, 128] --                --\n","│    └─Sequential (layer1)                         [1, 64, 128, 128] [1, 64, 128, 128] --                False\n","│    │    └─BasicBlock (0)                         [1, 64, 128, 128] [1, 64, 128, 128] (73,984)          False\n","│    │    └─BasicBlock (1)                         [1, 64, 128, 128] [1, 64, 128, 128] (73,984)          False\n","│    │    └─BasicBlock (2)                         [1, 64, 128, 128] [1, 64, 128, 128] (73,984)          False\n","│    └─Sequential (layer2)                         [1, 64, 128, 128] [1, 128, 64, 64]  --                False\n","│    │    └─BasicBlock (0)                         [1, 64, 128, 128] [1, 128, 64, 64]  (230,144)         False\n","│    │    └─BasicBlock (1)                         [1, 128, 64, 64]  [1, 128, 64, 64]  (295,424)         False\n","│    │    └─BasicBlock (2)                         [1, 128, 64, 64]  [1, 128, 64, 64]  (295,424)         False\n","│    │    └─BasicBlock (3)                         [1, 128, 64, 64]  [1, 128, 64, 64]  (295,424)         False\n","│    └─Sequential (layer3)                         [1, 128, 64, 64]  [1, 256, 32, 32]  --                False\n","│    │    └─BasicBlock (0)                         [1, 128, 64, 64]  [1, 256, 32, 32]  (919,040)         False\n","│    │    └─BasicBlock (1)                         [1, 256, 32, 32]  [1, 256, 32, 32]  (1,180,672)       False\n","│    │    └─BasicBlock (2)                         [1, 256, 32, 32]  [1, 256, 32, 32]  (1,180,672)       False\n","│    │    └─BasicBlock (3)                         [1, 256, 32, 32]  [1, 256, 32, 32]  (1,180,672)       False\n","│    │    └─BasicBlock (4)                         [1, 256, 32, 32]  [1, 256, 32, 32]  (1,180,672)       False\n","│    │    └─BasicBlock (5)                         [1, 256, 32, 32]  [1, 256, 32, 32]  (1,180,672)       False\n","│    └─Sequential (layer4)                         [1, 256, 32, 32]  [1, 512, 16, 16]  --                False\n","│    │    └─BasicBlock (0)                         [1, 256, 32, 32]  [1, 512, 16, 16]  (3,673,088)       False\n","│    │    └─BasicBlock (1)                         [1, 512, 16, 16]  [1, 512, 16, 16]  (4,720,640)       False\n","│    │    └─BasicBlock (2)                         [1, 512, 16, 16]  [1, 512, 16, 16]  (4,720,640)       False\n","├─UnetDecoder (decoder)                            [1, 3, 512, 512]  [1, 16, 512, 512] --                True\n","│    └─Identity (center)                           [1, 512, 16, 16]  [1, 512, 16, 16]  --                --\n","│    └─ModuleList (blocks)                         --                --                --                True\n","│    │    └─DecoderBlock (0)                       [1, 512, 16, 16]  [1, 256, 32, 32]  2,360,320         True\n","│    │    └─DecoderBlock (1)                       [1, 256, 32, 32]  [1, 128, 64, 64]  590,336           True\n","│    │    └─DecoderBlock (2)                       [1, 128, 64, 64]  [1, 64, 128, 128] 147,712           True\n","│    │    └─DecoderBlock (3)                       [1, 64, 128, 128] [1, 32, 256, 256] 46,208            True\n","│    │    └─DecoderBlock (4)                       [1, 32, 256, 256] [1, 16, 512, 512] 6,976             True\n","├─SegmentationHead (segmentation_head)             [1, 16, 512, 512] [1, 5, 512, 512]  --                True\n","│    └─Conv2d (0)                                  [1, 16, 512, 512] [1, 5, 512, 512]  725               True\n","│    └─Identity (1)                                [1, 5, 512, 512]  [1, 5, 512, 512]  --                --\n","│    └─Activation (2)                              [1, 5, 512, 512]  [1, 5, 512, 512]  --                --\n","│    │    └─Identity (activation)                  [1, 5, 512, 512]  [1, 5, 512, 512]  --                --\n","======================================================================================================================\n","Total params: 24,436,949\n","Trainable params: 3,152,277\n","Non-trainable params: 21,284,672\n","Total mult-adds (G): 31.41\n","======================================================================================================================\n","In
…
